pretrained/bicubic_pp_x3.pth (torch, 203899 bytes, 4 tensors)

conv0.weight f4 [32, 3, 3, 3]
0	0xbcd599bd	-0.026074285
1	0x3d529141	0.051408056
2	0xbda4aee1	-0.08041168
3	0x3c96b3a3	0.018396204
4	0x3e22b770	0.15890288
5	0xbd779e50	-0.060453713
6	0xbca2fa62	-0.019894782
7	0xbd59d5ab	-0.053182285
8	0x3a593f21	0.00082873
9	0x3c1abc46	0.009444302
10	0xbe4b9a31	-0.19883038
11	0x3d67e384	0.05661346
12	0xbe41c8dd	-0.1892428
13	0x3e2b1bb5	0.16709788
14	0x3dfcb99d	0.123400904
15	0x3d734f4f	0.059401806
16	0x3e115f1b	0.14196436
17	0xbe2f50f8	-0.17120731
18	0x3bb84ca8	0.0056243725
19	0xbeb09bbf	-0.34493825
20	0x3e330e05	0.17485817
21	0xbe92477e	-0.2857017
22	0x3b99a5d7	0.004688959
23	0x3e825583	0.25455865
24	0x3da3556e	0.07975279
25	0x3e71142c	0.23542851
26	0xbdf1db37	-0.1180939
27	0x3c3e20ef	0.011604532
28	0xbba59ba9	-0.0050539565
29	0xbd339327	-0.043841507
30	0xbc895b6a	-0.016767222
31	0x39768d48	0.0002351302
32	0x3e092567	0.13393174
33	0x3ca7e998	0.020497128
34	0xbc8c50d0	-0.017128378
35	0xbda99ee9	-0.08282263
36	0xbb4d962b	-0.0031370025
37	0x39c7ba25	0.00038094926
38	0xbe42fd7c	-0.19042009
39	0xba34f647	-0.0006903153
40	0x3c721427	0.0147753125
41	0x3e9a0a79	0.30086115
42	0x3ba4d09f	0.0050297524
43	0x3c82769d	0.0159257
44	0xbe091449	-0.13386644
45	0x3bc5f1c3	0.006040783
46	0xbcd5653d	-0.02604925
47	0xbe1a8224	-0.15088707
48	0xbbf26e16	-0.007398377
49	0x3d199079	0.037491295
50	0x3e977a0d	0.29585305
51	0x39fa5a58	0.00047751027
52	0xbcd7d695	-0.026347438
53	0xbdf88c92	-0.12136187
54	0xbbebda5a	-0.0071976604
55	0xbcc019b1	-0.02344975
56	0xbc182522	-0.009286197
57	0x3c12057a	0.0089124385
58	0x3d7af0fa	0.06126497
59	0xbc55963f	-0.01303631
60	0xbd16b1a1	-0.036790494
61	0x3cbd480f	0.02310565
62	0xbce14673	-0.027499413
63	0x38ab22df	8.160411e-05
64	0x3b7890a6	0.0037928014
65	0x3d347101	0.04405308
66	0xbaa110aa	-0.0012288291
67	0xbea6fef9	-0.32616404
68	0xbd90fb0f	-0.070791356
69	0x3da1e709	0.079053946
70	0x3e0132e0	0.12617064
71	0x3e06f545	0.131795
72	0x3d888c1a	0.06667347
73	0xbd318bba	-0.043346144
74	0x3d320880	0.043465137
75	0x3b27b341	0.0025589021
76	0xbe93dcab	-0.28879294
77	0x3c34696e	0.0110114645
78	0x3d5afb9f	0.05346262
79	0x3d8af80f	0.06785595
80	0x3d425682	0.04744578
81	0xbbc97e37	-0.006149079
82	0x3ce26919	0.027638005
83	0x3dac63c7	0.084174685
84	0x3d5d0d28	0.053967625
85	0xbe386b27	-0.18009625
86	0xbe166fb9	-0.14691056
87	0x3d650d5b	0.05592094
88	0x3e244ca3	0.1604486
89	0x3d9a59d7	0.07536667
90	0x3d8ed860	0.06974864
91	0x3d7d1d76	0.061795674
92	0xbc8222bf	-0.015885709
93	0xbd11a470	-0.03555721
94	0xbe25e8f5	-0.16202147
95	0x3d263c48	0.040584832
96	0xbcf5b9cf	-0.029995827
97	0x3e6b4890	0.22976899
98	0x3c0f1e34	0.008735228
99	0xbd6f55d7	-0.058431473
100	0x3cc6c501	0.02426386
101	0xbde9dc64	-0.11418989
102	0x3bd6c4f4	0.0065542404
103	0x3e3879b3	0.18015175
104	0x3e5869a7	0.21134053
105	0xbd73100a	-0.059341468
106	0x3d25dbbd	0.040492762
107	0xbe152e8f	-0.14568542
108	0x3bcf1569	0.006319691
109	0xbe2f205a	-0.17102185
110	0x3d33e8b9	0.043923113
111	0xbddc9194	-0.10769954
112	0x3e34d0f1	0.1765783
113	0x3dc82629	0.097729035
114	0x3ba44c73	0.0050139963
115	0xbdab606d	-0.08368001
116	0x3d84ba9e	0.06480907
117	0x3d28bb98	0.04119453
118	0x3d027add	0.031855453
119	0xbcc17769	-0.02361651
120	0xbd38fc5c	-0.045162544
121	0x3e2ba0de	0.16760585
122	0xbe1d2355	-0.1534551
123	0x3d86bcd4	0.06578985
124	0xbc7b2f76	-0.01533114
125	0xbd65399c	-0.055963144
126	0xbd44785b	-0.047966342
127	0x3e41bc68	0.18919528
128	0xbd8079e2	-0.06273247
129	0x3e0542a9	0.1301371
130	0x3dba2a09	0.09090049
131	0xbe46674e	-0.19375345
132	0xbc9786c0	-0.018496871
133	0x3c127d08	0.008940943
134	0xbd7276af	-0.059195217
135	0x3d227139	0.03965876
136	0xbd953d17	-0.072870426
137	0x3d3244e6	0.043522738
138	0x3bb6c73a	0.005577949
139	0x3d826baa	0.063681915
140	0xbcf39f03	-0.029738909
141	0xbc71f150	-0.014767006
142	0xbde245a9	-0.11048443
143	0x3dab17a3	0.08354118
144	0x3c131d86	0.008979207
145	0xbce4c571	-0.027926179
146	0x3ca423d4	0.020036615
147	0x3cec56e8	0.028850034
148	0x3ed459be	0.41474718
149	0x3d8c7a2e	0.068592414
150	0xbcf4b568	-0.029871657
151	0xbe9b46db	-0.30327496
152	0xbe3d2357	-0.18470512
153	0xbcd45953	-0.0259215
154	0x3d450485	0.048100013
155	0xbd267261	-0.040636424
156	0x3c9d2f38	0.019187555
157	0x3e9a4e52	0.3013788
158	0x3d9c3521	0.07627321
159	0xbae6de67	-0.0017613888
160	0xbea3c01e	-0.3198251
161	0xbd6544ff	-0.055974003
162	0x3c30ce57	0.010791383
163	0x390d88bc	0.00013497745
164	0xbd42889f	-0.047493573
165	0xbc388e56	-0.011264404
166	0x3d216364	0.039401427
167	0x3e0865bf	0.13320063
168	0xbce37c6a	-0.027769286
169	0x3c2c934d	0.010533166
170	0xbcb76817	-0.022388501
171	0xbb07acaa	-0.002070228
172	0x3c2fec37	0.01073747
173	0x3d7bf646	0.06151416
174	0x3d53f9c2	0.05175186
175	0xbd141fde	-0.036163203
176	0xbaea3efb	-0.0017871553
177	0xbd536d79	-0.051618073
178	0x3eb3c286	0.35109347
179	0xbe15c5b5	-0.146262
180	0x3cdf708a	0.027275342
181	0x3c19ae76	0.009379974
182	0x3d776112	0.060395308
183	0x3c6d3f65	0.014480446
184	0xbe061e93	-0.130976
185	0xbdeb8f5c	-0.11501953
186	0xba409085	-0.0007345754
187	0x3eb9f04c	0.36316144
188	0x3dea3491	0.114358075
189	0x3c8d4c5b	0.017248323
190	0x3cb2ae89	0.02181174
191	0xbce2eb77	-0.027700169
192	0x3b8f9e0c	0.0043828543
193	0x3a681383	0.0008853005
194	0x3b2ef727	0.0026697607
195	0x3bf7c66f	0.007561497
196	0xbd54b416	-0.051929556
197	0x3cdcabca	0.026937384
198	0xbb42ab9e	-0.0029704343
199	0x3a576290	0.0008216286
200	0x3d21d9ce	0.039514355
201	0x3c84cb44	0.016210206
202	0xbdb9b63d	-0.09067962
203	0x3c97c953	0.018528616
204	0x3d3a7c7d	0.045528878
205	0xbd40b0e1	-0.047043685
206	0x3e1bcea8	0.15215552
207	0xbc966323	-0.018357819
208	0xb9d3ea4f	-0.0004041963
209	0xbd466164	-0.048432723
210	0x3c90e8f2	0.017689202
211	0x3cbb5d8d	0.022871757
212	0x3dac5416	0.084144756
213	0xbd54636a	-0.05185262
214	0x3e11b613	0.14229612
215	0x3ed14f70	0.40880919
216	0xbd7e6856	-0.06211122
217	0x3d2deee1	0.04246414
218	0xbcce371a	-0.025172759
219	0x3d3461cd	0.044038583
220	0x3e783aae	0.24241135
221	0xbcc1b407	-0.023645414
222	0xbd996b96	-0.074912235
223	0x3da24eef	0.07925212
224	0xbe387fd9	-0.1801752
225	0xbc803d02	-0.01565409
226	0x3dedbbee	0.1160811
227	0xbd8245ed	-0.063609935
228	0x3d944b27	0.07240897
229	0xbe0b270a	-0.13589111
230	0x3d9904b4	0.074716
231	0x3d07f501	0.03319264
232	0x3d06287d	0.032753456
233	0xbcf87f5d	-0.030334169
234	0x3c69bb25	0.01426581
235	0x3c502753	0.012704688
236	0x3d5b5bf6	0.053554498
237	0x39a54607	0.00031523427
238	0xbe93f3b4	-0.28896868
239	0x3e1eb547	0.1549884
240	0x3d260921	0.04053605
241	0xbd184f26	-0.037184857
242	0x3e2c0376	0.16798195
243	0x3be83e79	0.0070875254
244	0xbc121bde	-0.008917777
245	0x3ca9fb58	0.020749733
246	0xbbfeab87	-0.0077719125
247	0xbd80bc6d	-0.06285939
248	0xbd761dbf	-0.06008696
249	0x3cc62b27	0.024190499
250	0x3d58e20a	0.052949943
251	0x3b95c2b8	0.0045703314
252	0x3c0e90c8	0.008701511
253	0x3b4fcc01	0.003170729
254	0xbcfa0bfb	-0.03052329
255	0xbce4e926	-0.027943205

conv1.weight f4 [32, 32, 3, 3]
0	0xbdb3ce25	-0.08779553
1	0xbd96e017	-0.073669605
2	0xbd6e7f15	-0.058226664
3	0xbda7d1c4	-0.081943065
4	0xbd81a8a3	-0.06330993
5	0xbdfb0dd8	-0.122585
6	0xbd91b596	-0.07114713
7	0xbd8c618f	-0.06854545
8	0xbdd4ec7b	-0.103966676
9	0x3c320cfc	0.0108673535
10	0x3a47dd40	0.00076242164
11	0xbd1b16a9	-0.037863407
12	0x3c36d4fc	0.011159178
13	0xbd48a974	-0.048989728
14	0xbcc9546e	-0.024576392
15	0xbe64adc8	-0.22331917
16	0xbd964254	-0.0733687
17	0xbbf8b607	-0.0075900587
18	0xbc561754	-0.013067085
19	0x3ba908a6	0.0051585017
20	0xbcef7350	-0.02922979
21	0xbc2d66b6	-0.01058357
22	0x3ead2374	0.3381611
23	0xbda3fa2d	-0.080067016
24	0x3ce8a73d	0.028400058
25	0x3d0e3fda	0.034728862
26	0xbe459ed7	-0.19298874
27	0x3e6868df	0.22696255
28	0x3bc39629	0.005968828
29	0x3e640014	0.22265655
30	0xbea7c165	-0.32764736
31	0x3f65d349	0.8977552
32	0xbe4ee5e8	-0.2020489
33	0x3d465a59	0.048426006
34	0x3dceba9d	0.100941874
35	0x3d07b1ab	0.03312842
36	0x3c878b9a	0.01654606
37	0xbd75ecfa	-0.06004045
38	0xbd8c8e1f	-0.06863045
39	0xbd7127b0	-0.05887574
40	0x3e3f4cf8	0.18681705
41	0xbdb4d87a	-0.08830352
42	0xbe330326	-0.1748167
43	0xbd14fac4	-0.03637196
44	0x3d90ae32	0.07064475
45	0xbd50f9c2	-0.051019438
46	0xbc86958d	-0.016428733
47	0xbd2c29eb	-0.042032164
48	0xbd38fbb7	-0.04516193
49	0xbde13ddc	-0.10998127
50	0xbc29aa00	-0.010355473
51	0xbddd9fc3	-0.10821488
52	0xbd8ad587	-0.06779008
53	0x3cae8c22	0.021307055
54	0xbd2315fe	-0.039815895
55	0xbe1089ae	-0.1411502
56	0xbda61da1	-0.0811112
57	0x3e2228f0	0.15835929
58	0x3eeb00ac	0.4589895
59	0x3e3ffb44	0.18748194
60	0xbe6334a2	-0.22188047
61	0x3d541aab	0.051783245
62	0x3beef7cb	0.007292723
63	0x3e2e7c74	0.17039663
64	0xbe270287	-0.16309558
65	0xbd86869e	-0.06568645
66	0x3e75ec1e	0.24015853
67	0xbf001099	-0.50025326
68	0x3dba5e5b	0.09100028
69	0xbe42e6a9	-0.19033302
70	0xbd975c0a	-0.07390602
71	0xbd83e2fc	-0.06439778
72	0xbdbb8495	-0.091561474
73	0xbcd56912	-0.026051078
74	0xbdd51b67	-0.10405617
75	0xbe585e6e	-0.21129772
76	0xbdf91dcd	-0.12163887
77	0xbe44c193	-0.19214468
78	0x3e7a7b62	0.2446113
79	0x3ec55338	0.38540053
80	0x3e054b1d	0.13016935
81	0x3d8315a7	0.06400614
82	0xbd250334	-0.040286258
83	0x3dcdcf75	0.10049335
84	0x3da59407	0.080848746
85	0x3debe235	0.11517755
86	0xbdd8d9be	-0.10588406
87	0x3d1b6da9	0.037946377
88	0xbd3f2bd7	-0.04667267
89	0xbb2a49e6	-0.0025983988
90	0xbe106f5e	-0.14104983
91	0xbe2c94af	-0.16853593
92	0xbe47b3d5	-0.19502194
93	0xbe2a6000	-0.16638184
94	0xbd9fc027	-0.07800322
95	0xbe26b1e5	-0.16278799
96	0xbe87ced6	-0.2652499
97	0xbe9a88c6	-0.30182475
98	0xbe4b3d3a	-0.19847575
99	0x3d81a636	0.0633053
100	0xbcdd97d6	-0.02704994
101	0x3d85b42b	0.06528505
102	0x3e2e4a89	0.1702062
103	0x3c74e4a2	0.014947088
104	0x3baa6be4	0.00520085
105	0x3e505574	0.20345098
106	0xbcc882f8	-0.024476513
107	0x3c7454ca	0.014912793
108	0x3e1ade39	0.15123834
109	0x3e10664b	0.14101522
110	0x3dfc9ac7	0.12334209
111	0x3e91cf73	0.28478584
112	0xbe05b23d	-0.13056274
113	0xbc593a16	-0.013258478
114	0x3f0789a4	0.529444
115	0x3f1d1262	0.61356175
116	0x3e75c2ef	0.24000143
117	0xbd255d8b	-0.040372413
118	0xbc68d915	-0.014211913
119	0x3d656e14	0.05601318
120	0xbdbcbfb2	-0.092162505
121	0x3efff0b0	0.49988317
122	0xbb02e2bc	-0.001997157
123	0xbe474c8c	-0.19462794
124	0xbe6eaa20	-0.23307085
125	0xbd17c806	-0.03705599
126	0x3df25acb	0.11833724
127	0xbe133ee7	-0.14379464
128	0x3da45813	0.08024611
129	0x3e61614b	0.2200977
130	0xbd412ea3	-0.047163617
131	0x3e424ea3	0.1897531
132	0x3e2f375d	0.17110963
133	0x3e7c01df	0.24610089
134	0x3d3249c7	0.04352739
135	0xbc168c42	-0.0091887135
136	0xbc668025	-0.014068638
137	0x3d830bc9	0.06398732
138	0xbe06a831	-0.13150097
139	0xbea70554	-0.32621253
140	0xbdb02fad	-0.086028434
141	0xbe15be15	-0.14623292
142	0xbe33326a	-0.174997
143	0x3c37022f	0.011169954
144	0xbde739f3	-0.1129035
145	0xbd202732	-0.03909988
146	0xbdab6e80	-0.083706856
147	0xbbdfe268	-0.0068324097
148	0xbe1502f7	-0.14551912
149	0x3cd19fcd	0.025588894
150	0xbe2cc355	-0.16871388
151	0xbdce1387	-0.10062318
152	0xbd3a5015	-0.04548653
153	0x3dc78460	0.097420454
154	0x3e0f7642	0.14009956
155	0x3caeaea9	0.021323519
156	0x3cdafca9	0.026731806
157	0xbdfac105	-0.12243847
158	0x3e0b3302	0.13593677
159	0x3cf448fb	0.029819956
160	0xbdec5832	-0.115402594
161	0x3d8e8ecd	0.06960831
162	0xbda447d2	-0.08021511
163	0xbd3c0f6c	-0.045913145
164	0xbc4cd30a	-0.0125014875
165	0xbe309b22	-0.17246678
166	0x3d8870b8	0.066621244
167	0xbe42d496	-0.19026408
168	0xbe42dbe1	-0.1902919
169	0x3e5eba7d	0.21750827
170	0x3e016def	0.12639593
171	0x3cca34ae	0.024683323
172	0x3d88da88	0.066823065
173	0x3d6d10fa	0.05787752
174	0x3e2f0b1c	0.17094082
175	0x3e084932	0.13309172
176	0x3af98525	0.0019036873
177	0x3dc18d3b	0.09450766
178	0x3c2b39d4	0.010450799
179	0xbd06a88b	-0.03287558
180	0x3c5f21d4	0.013618905
181	0x3e791433	0.24324112
182	0x3e2c8e29	0.16851105
183	0xbe20931a	-0.15681115
184	0x3f463e68	0.77438974
185	0xbe8e0c81	-0.27743915
186	0x3da17f98	0.07885665
187	0xbdc3e689	-0.095654555
188	0xbcc232c1	-0.023705842
189	0xbd6bc742	-0.057563074
190	0xbd872f28	-0.06600791
191	0xbcb825ef	-0.022479026
192	0xbc8df4cf	-0.017328648
193	0xbe029280	-0.12751198
194	0x3cfc0a5d	0.03076666
195	0xbcbe91aa	-0.023262817
196	0xbe25a9cf	-0.16178058
197	0xbdceade6	-0.10091762
198	0xbde8d6e8	-0.11369115
199	0xbd215b89	-0.039393935
200	0xbd45c629	-0.048284683
201	0x3d147f3d	0.036254156
202	0xbb8356ac	-0.004008135
203	0xbdbe1895	-0.092820324
204	0x3e57107c	0.21002382
205	0x3e603ccf	0.21898197
206	0xbd6ed78f	-0.05831104
207	0x3e40de0f	0.18834709
208	0x3e7ef1af	0.24896882
209	0x3deab3a5	0.11460046
210	0x3ec1355b	0.3773602
211	0xbeaf4449	-0.34231785
212	0x3e189b82	0.14903072
213	0x3ed089a5	0.40730014
214	0x3f46d021	0.7766133
215	0x3ed162c3	0.40895662
216	0xbc15b9aa	-0.009138504
217	0xbe398a64	-0.18119198
218	0x3cf91a82	0.030408148
219	0xbdc3bd94	-0.095576435
220	0x3e4208e0	0.18948698
221	0xbc806680	-0.015673876
222	0x3dbd98fd	0.09257696
223	0xbd7a313a	-0.061082102
224	0x3d19aeb6	0.037520133
225	0x3dedbbaa	0.1160806
226	0x3e3e0365	0.18555982
227	0x3dbc52a1	0.09195448
228	0x3e572b31	0.2101257
229	0x3f277461	0.65411955
230	0x3e8bbe09	0.27293423
231	0x3c1ba49b	0.009499694
232	0x3e84563f	0.2584705
233	0x3e56cf01	0.20977403
234	0x3cfa7513	0.030573403
235	0x3d9c4c40	0.07631731
236	0x3d7bf78f	0.061515387
237	0xbc00a59c	-0.007851984
238	0x3e72795f	0.23679112
239	0x3e70729b	0.23481219
240	0xbc072e35	-0.008250763
241	0x3dc57bfd	0.096427895
242	0x3d3a8e12	0.045545645
243	0x3c8fb23d	0.017541045
244	0xbca5f425	-0.020258019
245	0xbcad018d	-0.021118904
246	0xbcdd81ab	-0.02703937
247	0xbc992487	-0.018694175
248	0x3a8cb3c2	0.0010734724
249	0xbd7cc108	-0.061707526
250	0xbca5a239	-0.020218955
251	0xbcc5dc0d	-0.02415278
252	0xbda63dbf	-0.08117246
253	0xbe07eee9	-0.1327473
254	0xbda398b1	-0.07988108
255	0xbe122276	-0.14270958

conv2.weight f4 [32, 32, 3, 3]
0	0xbea89b06	-0.32930773
1	0xbcc1a4c2	-0.023638133
2	0xbdfddef6	-0.12396042
3	0xbde8fa8c	-0.11375913
4	0xbf222261	-0.6333371
5	0xbd414521	-0.047185067
6	0xbdbe35b6	-0.09287588
7	0x3d2a590c	0.041588828
8	0x3e384a39	0.17997064
9	0xbeb67f59	-0.35644034
10	0x3ec0536d	0.3756365
11	0xbc56b5c6	-0.013104862
12	0x3d1a75d5	0.03771003
13	0x3e495672	0.19661883
14	0xbd35cc0b	-0.044384044
15	0xbcf8808e	-0.030334737
16	0x3dd66d2c	0.10470042
17	0xbd62dab2	-0.055384345
18	0x3d27d96c	0.040978834
19	0x3d88f6b9	0.066876836
20	0x3c6a0cc5	0.014285271
21	0xbe46b280	-0.1940403
22	0xbd6225c4	-0.055211797
23	0xbd0b59d7	-0.034021225
24	0xbed8c866	-0.42340392
25	0x3e2fd330	0.17170405
26	0x3bcda540	0.006275803
27	0xbcda5a13	-0.026654279
28	0xbe8caf46	-0.27477473
29	0xbc89a563	-0.016802495
30	0x3f04f6de	0.5193919
31	0x3edf36c6	0.43596476
32	0x3e657a70	0.22409987
33	0x3d891998	0.06694335
34	0x3dc6d1bb	0.09707972
35	0x3de2f594	0.110819966
36	0x3cf689cd	0.030095005
37	0xbce458db	-0.0278744
38	0xbd627e14	-0.05529602
39	0xbf08eeda	-0.5348946
40	0xbf2863bb	-0.65777177
41	0xbe62b746	-0.22140226
42	0x3e30756c	0.17232293
43	0x3d8b5723	0.068037294
44	0x3de338c6	0.11094813
45	0x3e7ff6f8	0.24996555
46	0x3e366491	0.178118
47	0xbdecd677	-0.115643434
48	0xbe4abddc	-0.19798988
49	0xbf11ec26	-0.5700096
50	0x3d606d4e	0.05479174
51	0xbe066f85	-0.13128479
52	0x3eb325ff	0.34989926
53	0xbe36f88f	-0.17868255
54	0x3e452aa2	0.19254544
55	0xbdb721b3	-0.089419745
56	0x3ca955bb	0.020670762
57	0x3f8b9681	1.0905305
58	0x3eee8c94	0.46591628
59	0x3e42d12d	0.19025107
60	0xbe5dcda7	-0.21660481
61	0xbe1499c1	-0.14511777
62	0xbe1e08f6	-0.15433106
63	0xbd2b1fee	-0.041778497
64	0xbe10c9bd	-0.14139457
65	0xbd0f9dbe	-0.035062544
66	0x3ee3c151	0.44483426
67	0xbf3a3e7b	-0.7275159
68	0xbd9096d8	-0.07060021
69	0x3dc0ef26	0.09420614
70	0xbe783b59	-0.2424139
71	0x3e246cd6	0.16057143
72	0xbd2818c4	-0.041039243
73	0x3d741941	0.059594397
74	0x3d2f3551	0.042775456
75	0xbd50c5dc	-0.050969943
76	0xbcd20172	-0.025635455
77	0xba0bdfa8	-0.00053357566
78	0x3e89a548	0.26883912
79	0xbd9066fb	-0.07050892
80	0xbd120561	-0.03564966
81	0x3b0a98f8	0.0021148305
82	0x3d06edd7	0.032941666
83	0xbcd24ad9	-0.025670456
84	0x3ea61dd0	0.3244462
85	0x3fb868af	1.4406947
86	0x3eb35e63	0.3503295
87	0x3deffb79	0.117178865
88	0x3f2af308	0.66777086
89	0x3d4f427c	0.050600514
90	0xbd26a26f	-0.040682252
91	0xbd74fbf9	-0.059810612
92	0x3c70bc7e	0.014693378
93	0xbd581cb1	-0.052761737
94	0x3d7c818f	0.061646994
95	0x3d2ff7cd	0.04296093
96	0xbcbb2d96	-0.022848886
97	0xbd2a6f39	-0.041609976
98	0x3dabdfdc	0.08392307
99	0x3e494124	0.19653755
100	0xbdec2e5d	-0.115322806
101	0x3db1fbd4	0.086906105
102	0xbd2ec76b	-0.04267065
103	0xbf25c8d3	-0.6475956
104	0x3d992f90	0.07479775
105	0xbe1054c5	-0.14094837
106	0xbe882c45	-0.26596275
107	0x3e447854	0.19186527
108	0xbda3cb9a	-0.07997818
109	0x3cee93bc	0.02912318
110	0xbcfee472	-0.03111479
111	0x3e1f6d4e	0.1556904
112	0xbf02ef50	-0.5114641
113	0xbeb2b18f	-0.3490109
114	0x3c7077df	0.014677017
115	0x3df5c545	0.12000517
116	0xbd50183e	-0.05080437
117	0xbd8ec8d4	-0.06971899
118	0x3e438f77	0.19097696
119	0x3daeaa90	0.08528626
120	0xbf106e5f	-0.5641841
121	0x3efb5557	0.49088547
122	0x3e80507b	0.25061402
123	0xbf1cee54	-0.6130116
124	0xbedd3572	-0.43204838
125	0x3d63b6a2	0.055594094
126	0x3dbefaac	0.093251556
127	0xbd80813c	-0.062746495
128	0x3d46e79a	0.048560716
129	0x3d63aa6b	0.055582445
130	0xc02291b7	-2.5401437
131	0xbe3958e6	-0.18100318
132	0x3d94195d	0.072314
133	0x4000bea6	2.0116363
134	0x3e3f7a62	0.18699029
135	0x3b4c62fd	0.0031186931
136	0x3cc2422b	0.023713192
137	0xbc7268d7	-0.014795504
138	0x3d627df8	0.055295914
139	0x3ebd25bb	0.3694285
140	0x3e7f5b2e	0.24937126
141	0x3e61c6f6	0.22048554
142	0x3d1c2353	0.038119625
143	0x3d99a20a	0.075016096
144	0xbdf7dbf9	-0.12102503
145	0xbd9cf00b	-0.07662972
146	0xbd9e3070	-0.077240825
147	0xbead1385	-0.33803955
148	0xbfc237f0	-1.5173321
149	0xbe849240	-0.2589283
150	0xbc80af8e	-0.015708711
151	0xbe83576f	-0.25652644
152	0xbcfd66fd	-0.030932898
153	0x3ee7c470	0.45267057
154	0x3da5b074	0.080902964
155	0x3dda4763	0.10658147
156	0xbf47d5d4	-0.7806065
157	0xbf5759ea	-0.8412157
158	0x3d38c472	0.04510922
159	0x3e92d435	0.28677526
160	0x3d32f932	0.043694682
161	0xbcbc59c8	-0.02299203
162	0xbeca364e	-0.39494556
163	0xbed79267	-0.42103884
164	0xbe4d6c14	-0.2006076
165	0x3f0526fd	0.52012616
166	0x3f895dad	1.0731713
167	0x3eac7c48	0.3368857
168	0xbc1a3298	-0.009411477
169	0x3e34ff78	0.17675579
170	0xbd3751a7	-0.044755604
171	0x3e9c2d55	0.30503336
172	0xbeb7fd91	-0.35935643
173	0xbd519241	-0.05116487
174	0xbe4fe049	-0.20300402
175	0xbcfb4ac1	-0.030675294
176	0x3d6fc20f	0.058534678
177	0xbdf888cd	-0.12135468
178	0xbde544fe	-0.111948
179	0xbcffd1c1	-0.031227948
180	0x3ea693bc	0.32534587
181	0xbe4e87e7	-0.2016903
182	0x3ccf5e3a	0.025313485
183	0x3e4b215f	0.19836949
184	0xbf17a22e	-0.5923184
185	0xbebde5a8	-0.37089276
186	0x3e958d65	0.29209438
187	0x3e81ce9c	0.25352943
188	0xbd979327	-0.07401114
189	0x3f2a4f8d	0.66527635
190	0x3eb76432	0.3581863
191	0x3df90f93	0.12161174
192	0x3e8d4c3e	0.2759723
193	0x3e9ac65b	0.30229458
194	0xbd02251b	-0.031773668
195	0x3d09cc0d	0.033641864
196	0x3de97c1c	0.11400625
197	0x3d2d4b63	0.042308223
198	0xbf20497f	-0.62612146
199	0xbead5b52	-0.33858734
200	0xbd9a013d	-0.075197674
201	0x3ca51df2	0.02015588
202	0xbd7deef2	-0.061995454
203	0xbcc27b74	-0.023740508
204	0xbe494a0c	-0.19657153
205	0xbe2a2e35	-0.16619189
206	0xbe5172d4	-0.2045396
207	0x3e23c6e6	0.15993842
208	0xbe085321	-0.13312961
209	0x3da0b043	0.07846119
210	0xbf9ac06e	-1.2089975
211	0xbf5efc10	-0.87103367
212	0xbd80f50b	-0.06296738
213	0x3e75b6a0	0.23995447
214	0x3e0e7944	0.13913447
215	0x3d805b0e	0.06267367
216	0xbed6553b	-0.418619
217	0x3dbe1fe7	0.09283429
218	0xbddc0916	-0.107439205
219	0x3c89653d	0.016771907
220	0xbe730307	-0.23731624
221	0x3ca7c478	0.020479426
222	0xbceb7b60	-0.028745353
223	0xbd4c7ea5	-0.049925465
224	0x3e2a3edb	0.1662554
225	0xbe3720aa	-0.17883554
226	0xbd5c6231	-0.05380458
227	0xbe1b3570	-0.15157104
228	0x3e99453f	0.29935643
229	0x3f020ad4	0.5079777
230	0x3dab845a	0.083748534
231	0xbcd33ab3	-0.025784826
232	0x3e8adfe5	0.27123943
233	0xbd42037f	-0.047366615
234	0xbd9699b7	-0.073535375
235	0xbc62addd	-0.013835398
236	0xbd26787e	-0.040642254
237	0x3eacb472	0.3373142
238	0x3f2fa40e	0.686097
239	0x3e5f75a3	0.21822219
240	0xbde75aeb	-0.11296638
241	0xbea4ea22	-0.3220988
242	0xbe00d646	-0.12581739
243	0x3e9c4318	0.30519938
244	0x3f49cd77	0.7882914
245	0x3f2570f3	0.6462547
246	0x3e3cd7e5	0.18441732
247	0x3fe1bb41	1.763527
248	0x3da16976	0.07881443
249	0x3c9ad008	0.018898025
250	0x3c9fbbce	0.019498732
251	0xbd01d8ed	-0.031701017
252	0xbc3a74ec	-0.011380415
253	0x3ddd4749	0.10804612
254	0x3e109b21	0.14121677
255	0x3e93a415	0.28836122

conv_out.weight f4 [108, 32, 3, 3]
0	0xbb0f7385	-0.0021888923
1	0xbbb8e4e0	-0.0056425184
2	0x3a7ac293	0.0009565737
3	0x3ae23e07	0.0017260917
4	0x3d4f141a	0.05055628
5	0xbb417e88	-0.0029524881
6	0x3b4b4916	0.0031018904
7	0x3ba7936d	0.00511401
8	0x37a5977b	1.9740071e-05
9	0xbbf85894	-0.0075789187
10	0xbb8b4d78	-0.0042511784
11	0x3a7758a2	0.00094355096
12	0xbd0903f4	-0.033451036
13	0xbcce0c8d	-0.025152469
14	0x3a3a8139	0.00071145926
15	0xbbc30984	-0.005952062
16	0xbb276e3f	-0.002554789
17	0x3af775f6	0.001887976
18	0xbc847105	-0.016167173
19	0xbc3dd3ab	-0.01158611
20	0x3ac52050	0.0015039537
21	0xbd25425f	-0.0403465
22	0xbd55e753	-0.05222256
23	0x3b06ba19	0.00205577
24	0xbb721316	-0.0036937646
25	0xbb2e8a95	-0.0026632894
26	0xbab4c1d4	-0.0013790675
27	0x3e4fe64e	0.20302698
28	0x3e4a6c1e	0.19767806
29	0x3aeb1fac	0.0017938516
30	0x3b00eb82	0.0019671624
31	0xbeba5365	-0.3639175
32	0x3cb477c3	0.022029763
33	0xbc25d6ce	-0.010122014
34	0xbc95cf10	-0.018287212
35	0x3bdb382a	0.006690045
36	0xbc9d8d2f	-0.01923236
37	0xbd8aebda	-0.06783266
38	0xbbda4fc6	-0.0066623418
39	0xbd537b72	-0.0516314
40	0x3e4ef72a	0.20211473
41	0xbc53b1b3	-0.012920785
42	0xbb810bf7	-0.003938194
43	0xbbd0d0f3	-0.006372565
44	0x3a93d39e	0.0011278277
45	0x3ba45951	0.00501553
46	0x3c34bb5d	0.011030999
47	0xba8f8b9f	-0.0010951645
48	0xbbcaace5	-0.0061851614
49	0x3a9cd0d0	0.0011964086
50	0xbb9e3c82	-0.0048289904
51	0xbb51026f	-0.003189232
52	0x3b0458bd	0.0020194494
53	0xbaa2c06a	-0.0012416963
54	0xbe8bc22d	-0.27296582
55	0xbc904266	-0.017609786
56	0x3c3f5399	0.011677646
57	0xbcce349b	-0.025171569
58	0xbe4992dd	-0.1968493
59	0x3b12ff3b	0.0022429961
60	0x3b4a4d9e	0.0030869017
61	0xbcd6a479	-0.026201474
62	0x3ad65bbc	0.0016354243
63	0xbdda5a53	-0.10661759
64	0xbdc22c56	-0.09481113
65	0xbbc84bf8	-0.006112572
66	0x3d8c4e59	0.06850881
67	0x3d4cfb4f	0.050044354
68	0xbc78ea87	-0.015192634
69	0x3bf24847	0.00739387
70	0xbcccb1a4	-0.02498705
71	0x3c5b9ff1	0.013404832
72	0xbd679afb	-0.056544285
73	0xbc1513e3	-0.00909898
74	0x3b87a5a5	0.0041396194
75	0x3d85e83e	0.06538437
76	0xbc722789	-0.014779934
77	0xbb99f035	-0.0046978244
78	0x3c9b4f56	0.018958729
79	0xbbffc03d	-0.007804899
80	0xba0a2831	-0.0005270271
81	0x3b87b2be	0.004141181
82	0x3dc4318c	0.09579763
83	0x3b220d68	0.002472723
84	0x3be38874	0.0069437567
85	0x3d4ce518	0.05002317
86	0xbb687917	-0.0035472566
87	0x3abcdbe6	0.0014408797
88	0x3c32d0fc	0.010914084
89	0xb905a4ba	-0.00012745234
90	0x3b2c26a6	0.0026268153
91	0x3a510a80	0.0007974282
92	0x3b1c5484	0.0023854086
93	0xba2c5e6e	-0.00065753504
94	0x3cd9fec3	0.026610738
95	0xbb1389d3	-0.002251257
96	0xb98b603c	-0.00026583846
97	0xba89f9ce	-0.0010526718
98	0xba3e43b3	-0.0007258013
99	0xbe19a707	-0.15005122
100	0x3dded222	0.108799234
101	0xbc6db5a0	-0.014508635
102	0xbdaf669f	-0.08564495
103	0x3f010d60	0.50411034
104	0x3c28f4c5	0.010312264
105	0x3a1dcb93	0.00060194096
106	0xbc4d0cc3	-0.01251525
107	0x3cc94ec4	0.024573691
108	0xbbb8ac3c	-0.0056357663
109	0xbcb8c82c	-0.022556387
110	0x3b8ac867	0.0042353156
111	0xbc62c624	-0.013841186
112	0xbd8f465b	-0.06995841
113	0x3b17bf93	0.0023154959
114	0x3bd437e5	0.0064763897
115	0x3a75d264	0.0009377359
116	0x3b06d905	0.002057613
117	0x3e220c31	0.15824963
118	0x3dfb7ddf	0.122798674
119	0xbc55a0b4	-0.013038803
120	0x3f0d2a39	0.5514255
121	0x3d0d86ba	0.034552313
122	0xbd216052	-0.0393985
123	0x3d0036f3	0.031302404
124	0x3928bcd5	0.00016092074
125	0xbabe826f	-0.0014534722
126	0xbaf38e32	-0.0018581806
127	0x3b933100	0.0044919252
128	0xbaa2480d	-0.0012381092
129	0xbc188819	-0.009309792
130	0xbdd35239	-0.10318417
131	0xbb3ab529	-0.0028489328
132	0xbb4cc8be	-0.0031247581
133	0x3ad9bdf0	0.0016612392
134	0xba4a4086	-0.0007715303
135	0x3c1e9e80	0.009681344
136	0x3c2e1fe6	0.010627722
137	0x3b0052d2	0.0019580615
138	0x3d124722	0.03571237
139	0x3c37fbad	0.011229438
140	0x3b44fa63	0.0030056469
141	0xba7665fb	-0.00093993515
142	0xbaa81a0f	-0.0012825149
143	0xbb071f74	-0.0020618113
144	0x3c8e2532	0.01735172
145	0x3d143448	0.03618267
146	0xbc1c65cc	-0.009545755
147	0xbd9694b8	-0.073525846
148	0x3d02a340	0.03189397
149	0x3c3a29fa	0.011362547
150	0xbc5eb367	-0.013592578
151	0xbc5318a8	-0.0128842965
152	0x3a6bdbf7	0.0008997316
153	0xbd925311	-0.0714475
154	0xbe5bad10	-0.21452737
155	0x3d02ba57	0.03191599
156	0x3c6f4cff	0.01460576
157	0x3c90321a	0.017602015
158	0x3b092d65	0.0020931598
159	0x3cd33bec	0.025785409
160	0x3d5820d4	0.052765682
161	0xbd2ad83c	-0.041710123
162	0xbb2e394d	-0.0026584447
163	0x3acf9abe	0.0015838963
164	0xbb9e03bd	-0.004822223
165	0x3b667856	0.003516694
166	0xbd8204ea	-0.063485935
167	0x397dbba1	0.00024197857
168	0xba847752	-0.0010106361
169	0x3b0b4cd5	0.0021255512
170	0x39f62ae6	0.00046952738
171	0xbb34680b	-0.0027527835
172	0x38ff5e82	0.00012176951
173	0x3a31e92e	0.00067867606
174	0x396fd823	0.00022873333
175	0x3d2184f6	0.039433442
176	0xbb98feb8	-0.0046690367
177	0x3b77a76a	0.0037788996
178	0x3bbdd625	0.0057933503
179	0xbb3de3d9	-0.002897492
180	0x3efd415e	0.49463934
181	0x3ebacbc7	0.36483595
182	0x3d3285a4	0.04358448
183	0x3dae5b11	0.08513463
184	0x3ee622ca	0.44948417
185	0x3d4d48bc	0.050118193
186	0x39be5e55	0.00036309907
187	0x3d357261	0.044298533
188	0xbcb6f4cf	-0.02233353
189	0x3c4a1344	0.012333695
190	0x3b9a95d7	0.0047175693
191	0x3a8cafaa	0.0010733504
192	0x3d196a6e	0.037455015
193	0x3c00aed1	0.0078541795
194	0x391b2dcb	0.00014799011
195	0x3b7fdd9d	0.0039042004
196	0xbb76008f	-0.0037536954
197	0xbb21dcf5	-0.002469835
198	0x3b162130	0.0022907965
199	0x3b878655	0.0041358867
200	0xbb09bc59	-0.0021016805
201	0x3d96be5e	0.073605284
202	0x3d62b429	0.055347595
203	0x3bbc885b	0.0057535595
204	0xbb9998cd	-0.0046874047
205	0x392859fc	0.0001605525
206	0x3b638482	0.0034716432
207	0x3c6cf3c6	0.014462417
208	0xbdd70f09	-0.105009146
209	0x3c5cbd00	0.0134727955
210	0x3b62d0b3	0.0034609258
211	0xbc2e1535	-0.010625173
212	0xbb5a04a2	-0.0033266922
213	0x3b136949	0.0022493175
214	0xb8e1876d	-0.00010754061
215	0x382c50f1	4.1083378e-05
216	0x3e67835e	0.22608706
217	0x3dc0de6a	0.09417422
218	0xbce05fa9	-0.027389364
219	0x3c92d62c	0.01792439
220	0xbe9575f0	-0.29191542
221	0xbccfc701	-0.025363447
222	0x3bb26367	0.0054439786
223	0xbc0ba2ca	-0.008522699
224	0x3c2c7baa	0.010527531
225	0xbb70073f	-0.0036625413
226	0xb9ed4b88	-0.00045260438
227	0xbb16cfa9	-0.0023011959
228	0x3a8e2490	0.0010844637
229	0x3ce9f0d2	0.028557215
230	0xbab1fc5a	-0.0013579235
231	0x39f9e57d	0.00047663963
232	0xb93f1987	-0.00018224689
233	0xbaf319d4	-0.0018547126
234	0xbcc25da4	-0.023726292
235	0x3ce3cb37	0.027806861
236	0x3ae6c566	0.0017606437
237	0x3cc70fda	0.02429955
238	0xbd0d38cf	-0.034478005
239	0xbac46420	-0.0014983453
240	0x3bbd6858	0.005780261
241	0xbbbb26b4	-0.005711401
242	0xba5a80bf	-0.00083352247
243	0x3b44a45a	0.0030005188
244	0xbc1ee4f5	-0.009698142
245	0xbaad80de	-0.0013237258
246	0x3b8a7209	0.00422502
247	0x3cc1ab21	0.023641171
248	0x3ccb461b	0.024813702
249	0x39bfb0cf	0.00036562092
250	0xbb6bee65	-0.0036000249
251	0xbb5826b7	-0.003298206
252	0xbb9c1af3	-0.004763955
253	0x3bb0863a	0.005387095
254	0xb9baf375	-0.00035658074
255	0xbd5c11ee	-0.053728037
